model/LSTM/lstm_model_15.pth (torch, 77085 bytes, 5 tensors)

lstm.weight_ih_l0 f4 [256, 6]
00000000: f85a 7d3e 7633 803f 0f25 973d 5f2d 443f
00000010: f651 04be eff7 9cbe 7753 d1bc e8b9 cdbe
00000020: 3cea 023e 7460 edbe 8889 173e 1a67 78bd
00000030: 2912 9d3e 4c79 4f3e bdef debc 18fb 243e
00000040: 5509 163e 536f 9b3c 1e4c b23e 146a 9d3e
00000050: 8c1e a1bd 2ed9 a03e 0395 38be 8f4b cebd
00000060: 4d86 043f 29f2 ddbc e537 793e 8526 b33b
00000070: 3bfe ad3e c57a a73e fc50 c2be cc59 963d
00000080: 7494 23be 2d72 523c 2434 53be cd3d f7be
00000090: deea 4abe a407 12be 7d31 fdbc 61b9 883d
000000a0: e77f d2bc 4200 1fbe 9839 a6bd 846c 6d3e
000000b0: 2421 dcbe 9c64 603e 56e6 dcbe 66c8 18bf
000000c0: b11e a9bf b947 e3be 6901 9fbf 9419 76be
000000d0: 57e6 92bf e02c a0bf 7d8f d9be c1a1 00bd
000000e0: bbc9 2fbe 6000 0ebd bb96 81be acad a3be
000000f0: ef74 3bbd f7e9 a0bd 2ca4 e8be 107b 1cbe
00000100: f138 c9be a065 cdbe de23 32bf ec7d 47be
00000110: d8b2 1abf 09f1 67bd 2d41 f6be c0c2 e2be
00000120: 1368 a13c e01f 01be 2697 1b3e 93bc 35be
00000130: 6d20 2f3d 9377 5d3e b28a 063e eb73 8d3f
00000140: a5df 43be c103 413f e3b3 2dbe c96a f3be
00000150: ba0e db3b 0168 a8bc e32d 03bd 253f 943d
00000160: de82 58be c377 00be 5aa2 11bd aa27 c2bd
00000170: 0e87 d2bc 3b7c d23d dc89 f53d 2fcd e9bb
00000180: 6d2b 1c3e 0eb8 a93d 2a57 29bd 52ce da3d
00000190: ead2 3fbd f4d9 bfbd abaf e23e 6103 fc3e
000001a0: 146d ab3e 19b8 0f3f ee7c 813e 9ec9 df3e
000001b0: e49f b1be 7024 e5bd 574f d6be e950 97be
000001c0: caf5 81be a931 43be 9f33 38be c87f 52be
000001d0: 3112 aabc 28c8 e4be fe9d 06be 471a 52be
000001e0: 49c2 803e 23d2 a5bb c14a 043f b615 533c
000001f0: 9791 ed3e 27bb 033f 7c86 0ebe dca4 d7bd
00000200: f4b4 943e 0404 88be c257 483e f56d 7d3e
00000210: 4347 733e bb10 463f 5f87 bf3d e260 0e3f
00000220: 1e80 c93d c1b4 7e3d b10a 3ebe 2cab abbc
00000230: a953 7dbe 8510 843d d0aa d3bd ad45 67be
00000240: 5c0d 0abc 6162 6a3d ac22 43bd 4349 173e
00000250: 3f62 00bd fbb2 debd fee6 60bb 4f51 90bd
00000260: 0a87 9bbe fa21 85be bcd6 12be aef7 52be
00000270: cc81 0c3e d40d 003d 70e4 a5bc 42b3 2c3d
00000280: 78df 543d be96 25be 0db4 c63d 5b0f abbe
00000290: f976 c43d f7c3 54be efe5 313d b1a3 2c3d
000002a0: 2a8f e43d e996 bcbe 3e9a 373e ded5 a7be
000002b0: b78b 243e 6b4b 153e b5f7 533e 77bc c93f
000002c0: 9a40 723e 92fa 9b3f 41d2 013e 78cf a7bd
000002d0: 4589 f3be 71cf af3d 183f 89be 23b3 59be
000002e0: abaa bdbe 0fda 84be fedf b3bd 8522 bf3d
000002f0: 3d33 21bd 80cc ae3d 7c25 54bd fb5c 1cbe
00000300: 20d1 953e 803c b13d e131 52be 5b78 b9bc
00000310: d6a0 a3bd 8f04 69bd f0d1 08bf 3ffa f43d
00000320: f6f3 33bf f947 f53d 0a5d 0abf a089 3abf
00000330: 8c60 f5be e8a0 a13d 4453 34bf db03 433d
00000340: e0f8 19bf 7601 20bf 1af4 043f 2468 cb3d
00000350: 7300 913e 672a 363e 9c31 d23d 3f71 953e
00000360: b721 bd3d 382d 42bc 3e1f b239 47ed f6bd
00000370: 603a 08be 06fa 70bd c013 0d3e 80a5 78bf
00000380: c773 083e ce04 3ebf 14c7 9a3c c01f 0b3f
00000390: f790 283f 9d6f 09bd 28b0 1a3f f5b8 dc3d
000003a0: d83f 033f 90c3 e23e 7f1e 68be 609e 92be
000003b0: f317 5d3e 70ab 86be 11b9 723d ba52 9c3c
000003c0: 88ed 9d3c 37cc 25bf c072 62be 06d9 bebe
000003d0: 6a36 70be d10e af3d 90f7 24be 9406 b6bd
000003e0: 1047 b1be 344c a5bd 07be 5dbe 8ebb 88be
000003f0: ce99 6cbd 6c7e 6e3c 9488 c83d ad31 093c
0.24741733 1.0015705 0.07380115 0.7663173 -0.1292189 -0.30657908 -0.025552494 -0.40180898
0.12784666 -0.4636265 0.14798558 -0.0606452 0.30677918 0.20261115 -0.027213925 0.1611141
0.14651997 0.018973982 0.34823698 0.30744994 -0.078671545 0.31415695 -0.18025593 -0.100730054
0.51767427 -0.02709301 0.24337728 0.0054672384 0.33983025 0.32710853 -0.3795241 0.07341346
-0.15974599 0.012844604 -0.20625359 -0.48289338 -0.19816157 -0.14260727 -0.030907387 0.06675983
-0.025695754 -0.15527442 -0.08116454 0.23185927 -0.42994034 0.2191338 -0.43144482 -0.59680784
-1.3212491 -0.44390658 -1.2422305 -0.24033195 -1.1476544 -1.2513695 -0.42492285 -0.03140426
-0.17166798 -0.034668326 -0.2531031 -0.3196844 -0.045765813 -0.07857125 -0.45437753 -0.1528132
-0.39301255 -0.40116596 -0.6958598 -0.19481629 -0.60429144 -0.056626353 -0.480966 -0.44289207
0.019702947 -0.12609816 0.15194377 -0.17747717 0.042755533 0.21627645 0.13138846 1.1051
-0.19128282 0.75396353 -0.16963153 -0.47542408 0.006685105 -0.020557405 -0.032026183 0.07238606
-0.21143672 -0.12545685 -0.03555522 -0.094802216 -0.025699165 0.10277601 0.11989185 -0.0071350555
0.1525094 0.08287059 -0.04134289 0.10683884 -0.046832003 -0.09367743 0.4427465 0.49221328
0.33481658 0.56140286 0.25290626 0.4370851 -0.346923 -0.111885905 -0.41857406 -0.29553917
-0.25382835 -0.19061913 -0.17988442 -0.20556557 -0.020760627 -0.44683957 -0.13146207 -0.20517837
0.25148228 -0.0050604506 0.51676565 0.012883594 0.4640014 0.51457447 -0.13918489 -0.10529491
0.29044306 -0.26565564 0.19564727 0.24748977 0.23757653 0.7736928 0.09351992 0.5561658
0.098388895 0.0621841 -0.18558766 -0.020955645 -0.24738945 0.06448463 -0.10335314 -0.22585173
-0.008426037 0.057222728 -0.047640488 0.14774041 -0.031343695 -0.108739816 -0.003431737 -0.070467584
-0.30376464 -0.26002485 -0.14339727 -0.20602295 0.13721389 0.031263188 -0.020250529 0.04216314
0.05197093 -0.16170785 0.09702311 -0.33410153 0.09593005 -0.2077788 0.043432172 0.042148296
0.11160119 -0.36833885 0.17929932 -0.32780355 0.16068922 0.14579551 0.20699961 1.576064
0.23657456 1.2185843 0.12677862 -0.081938684 -0.47565666 0.08584488 -0.2680595 -0.21259741
-0.37044272 -0.25947616 -0.087829575 0.09332756 -0.039355505 0.08535099 -0.05179356 -0.15269844
0.29261112 0.086541176 -0.2052684 -0.022640398 -0.079896614 -0.056889113 -0.5344534 0.11961793
-0.7029413 0.11976618 -0.54048216 -0.7286625 -0.47925222 0.078920186 -0.70439553 0.0476111
-0.6014538 -0.6250223 0.5193497 0.099319726 0.28320655 0.17789613 0.102633685 0.29187962
0.09234946 -0.011851601 0.00033974083 -0.12056976 -0.13303518 -0.05883219 0.13777065 -0.9712753
0.13325416 -0.7422608 0.018893756 0.5434532 0.658462 -0.03355371 0.60425043 0.10777465
0.5126929 0.44289827 -0.22667883 -0.28636456 0.21591167 -0.2630267 0.059258524 0.019082416
0.019278303 -0.6476473 -0.22114086 -0.3727495 -0.23458257 0.08547748 -0.16110063 -0.088879734
-0.3462453 -0.08071175 -0.21654521 -0.26705593 -0.057763867 0.0145565085 0.09791675 0.00837366

lstm.weight_hh_l0 f4 [256, 64]
00000000: e47a 0a3e b2a5 453e 1ddd 8e3e 3c7f 753f
00000010: 7365 babe c1ea 1cbc d8af 7fbd 1262 13bd
00000020: 7523 18be 8830 43bd 4d07 933c 6a72 713d
00000030: 43bb b33f 6930 0abf 8fee a23e 2680 3a3d
00000040: fe63 cebd 31b7 313f fb98 36be ad4e 893e
00000050: ffbf b83e 78ee c03d 41f0 62bf 80cb 07bf
00000060: 095c 96be 47b2 db3c 1b93 203e ee0f c9be
00000070: dc39 8e3e 29d7 043f a236 94bf 470e df3e
00000080: ea8e 0a3e 67dc 74be 0589 4d3f 2609 c0be
00000090: 5fdc 8cbe 068d e43e a649 f43f 9d58 96be
000000a0: 6fbe 48bf f0e5 04be 8afc fb3d 75e8 89be
000000b0: fe5e 76bf ca36 2d3e 7cd8 413d c65c 4dbe
000000c0: f8ec b23f d1ac bcbe aaaf a4bc adbc f2be
000000d0: 2936 f6be d42d 3e3e 8d8d 733d e9f2 0d3e
000000e0: fbc8 1f3f e2da 633f 94aa 6d3f 6a13 1bbe
000000f0: 3426 323e 4d1f c9be f4b7 1e3e 7dae 7bbd
00000100: 6639 00be 2cb7 76be f1c9 063e 160b 62be
00000110: e86e 233e aa8c 1b3f f737 a43e 59b0 e93e
00000120: 6aaa babe ec4d 853e c56d 4fbd 20fe 43be
00000130: cf90 28be 6fa0 22bf 0a69 c8be 6bc9 d53c
00000140: 1398 3b3c 39b3 7cbe 1274 ae3e 864e 17be
00000150: e392 2d3d 45bc cabc 9d0e c1bd 097f 1c3f
00000160: 742c 643d 6e54 f7be ffcd 05be b822 24be
00000170: ca56 7dbd 9eca 053e b0b6 cabe d0ed 733d
00000180: 4d0a 413e 4510 0a3f 6626 a13e 5a55 e93c
00000190: b713 a5be 901f b13e 5f88 093e f171 063d
000001a0: 732c 9e3d dba8 5dbd 209d fd3d fc22 74bd
000001b0: 1c64 72bc 05c0 94be 29c9 b53e 9333 bebd
000001c0: 9271 bc3e d48f 923e ad1e 863e cd9f 423e
000001d0: 228f 993d 2980 de3d 0ecf 28be e050 483e
000001e0: 2f4f a83d beb5 4dbe 8d8b 5abd 272d 4f3e
000001f0: 6e11 1dbf 6ded 833b 58ac 103e 0949 21be
00000200: bb0b fb3e ed6f 453e 065c 1a3f d43a a9be
00000210: cf57 8f3d f71f 0abe f35e e33c a495 ccbe
00000220: 00c8 053e dd19 30be 878b 7a3c 94ad 9e3e
00000230: bb2f 003e 222d 86bd 1232 37be a705 3ebe
00000240: c8c2 cdbe 70a4 3ebd edf4 89be c419 a73e
00000250: b730 bcbc fec5 9b3e c056 b33e bb91 b23e
00000260: 4b2e b8be 1ef6 653e 6a7d b83e 2bab bd3e
00000270: 1ac5 863e 2e54 c43d f797 0a3f 6397 ad3e
00000280: 4f12 c43e 99b2 3fbe 2f6b 03be c804 07bf
00000290: 7b33 d0bc b9f8 66bb d037 d93e b076 223e
000002a0: 0daa 6cbb b1d9 dfbe c935 893e 2988 abbe
000002b0: 2292 ad3e a6e0 c13d 3f4d 91bd 2398 9ebd
000002c0: e9f7 593e 0835 6cbd 9f40 9f3e 36ba 2d3f
000002d0: 0087 c13d 2ee1 5dbe 29aa a13e 6e04 953e
000002e0: d0ef 2a3f 719b ad3e f530 02bd 1058 5dbd
000002f0: e36d ac3d 2c4d 6dbe 1048 ea3e d8fa dabe
00000300: 155f 99be 1a7e c9bd 37ba 8bbe 249b 193f
00000310: 1afb 7ebe f32e ae3e fe96 45be 146d 293f
00000320: cf5d f7be b3b3 f13e 3fbe 643d 450f bbbe
00000330: ccbc 1cbe 53bf 2abf 2b4c 233e b1ef 9b3e
00000340: 2a25 ad3e 942a 64bd 48da f33e e257 a0be
00000350: b7c4 0b3e 8c3a 9dbe 7e13 35be 962e c93d
00000360: a0e5 f03e f7a3 e1be 5222 e5be e215 61bd
00000370: cc1c 83be f0ba e8bd 7bf8 f7be 5e21 38bf
00000380: 63da 00be 1688 143f c73c 783e a2e0 a73c
00000390: c683 d6be 957b 0d3c 1aea acbe 7736 513e
000003a0: fb76 7dbd c805 1c3f 1400 82be 1985 db3e
000003b0: 6509 a33d 62d7 1abf 3ac5 223f d850 dfbe
000003c0: e21d d9bc 919c f03e 743d 90be 84a8 cc3d
000003d0: f67e a73e 8f22 5c3e ce27 0ebf 5a11 03bf
000003e0: dbda 72be 0861 99be 9bf9 4bbe 9a80 a33e
000003f0: ba0a 3cbe cef6 f1be 04f7 a2be 6f02 debe
0.13523442 0.19301489 0.2790307 0.9589727 -0.36405525 -0.009577454 -0.062423557 -0.0359822
-0.14857276 -0.047653705 0.017947817 0.058947004 1.4041523 -0.5398012 0.3182263 0.045532368
-0.10077666 0.6942015 -0.17831795 0.26817837 0.3608398 0.09420484 -0.8864785 -0.5304489
-0.29367092 0.026818408 0.15681116 -0.39269966 0.27778518 0.5189081 -1.1579173 0.4356558
0.1353108 -0.23912202 0.802872 -0.3750698 -0.2751188 0.44638842 1.9084976 -0.29364482
-0.7841558 -0.12978339 0.123040274 -0.26935163 -0.96238697 0.16915432 0.047325596 -0.20054922
1.3978567 -0.36850598 -0.020103294 -0.47409573 -0.48088196 0.1857217 0.059461165 0.13862194
0.62416047 0.89005864 0.92838407 -0.15144125 0.17397386 -0.39281693 0.1549986 -0.061445702
-0.12521896 -0.24093312 0.13162972 -0.22074541 0.15960276 0.6076151 0.32073948 0.45642355
-0.3645814 0.26036012 -0.050641794 -0.1913991 -0.1646149 -0.6352605 -0.39142638 0.02609702
0.011449832 -0.24677743 0.3407293 -0.14776048 0.04237641 -0.024747977 -0.094266154 0.6113134
0.055706456 -0.48306602 -0.13066863 -0.16028869 -0.061850347 0.13065574 -0.39592505 0.059552968
0.18851586 0.53931075 0.31474608 0.028483082 -0.32241604 0.34594393 0.13430928 0.032823507
0.07723322 -0.05411611 0.12383485 -0.059603676 -0.014794376 -0.2905275 0.35505036 -0.09287181
0.36805397 0.28625357 0.2619528 0.19006272 0.074980035 0.10864288 -0.16485235 0.19562101
0.08218228 -0.2008886 -0.053355742 0.20232068 -0.6135472 0.004026106 0.14128244 -0.15750517
0.49032387 0.19280978 0.60296667 -0.33052695 0.0699917 -0.13488756 0.027755236 -0.39957917
0.13064575 -0.17197366 0.015292055 0.30991805 0.12518208 -0.06551577 -0.17890194 -0.18556844
-0.4018767 -0.04654354 -0.26944676 0.32636845 -0.022972448 0.30424494 0.35027122 0.3487681
-0.3597282 0.22457168 0.36033183 0.37044653 0.26322252 0.095863685 0.5413813 0.3390456
0.38295218 -0.18720473 -0.12833856 -0.5274167 -0.025415173 -0.0035243465 0.42425394 0.15865588
-0.00361121 -0.43720773 0.26798847 -0.3350232 0.33900553 0.094666764 -0.07094812 -0.077438615
0.21285976 -0.057667762 0.3110399 0.6786226 0.09449577 -0.2166793 0.31575134 0.29104942
0.66772175 0.33907655 -0.03178497 -0.05403906 0.08419397 -0.2317397 0.45758104 -0.42769504
-0.29955354 -0.09838505 -0.27290508 0.6000235 -0.24900475 0.34020194 -0.1929588 0.66182065
-0.48313758 0.47207412 0.055845495 -0.36535087 -0.15306395 -0.6669819 0.15947025 0.30456308
0.33817416 -0.05570467 0.47627473 -0.3131705 0.1364926 -0.3070873 -0.17683217 0.09823339
0.4705019 -0.44070408 -0.44752747 -0.05495251 -0.25607908 -0.113637805 -0.48431763 -0.71925914
-0.12583308 0.5802015 0.24241935 0.020492855 -0.4189741 0.008635421 -0.33772355 0.20430933
-0.061881047 0.6094632 -0.25390685 0.42874983 0.07960776 -0.604849 0.63582194 -0.43616366
-0.026503507 0.4699445 -0.28171885 0.09993079 0.3271405 0.21497558 -0.5552949 -0.5119835
-0.23716299 -0.2995684 -0.19919436 0.31934053 -0.18363467 -0.4725861 -0.31829083 -0.43361232

lstm.bias_ih_l0 f4 [256]
00000000: b789 393e d226 083d d4f5 78bd 216d 2f3e
00000010: c3cf 85be 8489 ae3e 4b01 073d 6c68 603e
00000020: 587d 993f 974e db3e 9d25 a63e 0624 ef3e
00000030: d810 39be 2091 2c3e e431 9a3c 0194 163d
00000040: 7692 023d 8d02 10be 382f a03e 9a0d 1d3e
00000050: 668e f9be f222 90be 0e0a e7bd 74a4 a33d
00000060: 1108 d1bd e84e 843e 96f9 393d 5de6 cfbc
00000070: 3749 3abe ba08 a2be 7e90 ac3e 430e 123e
00000080: ac8d a13d c24d fa3e 5946 193f 32b6 4fbe
00000090: 3755 223e e3b3 14bd c188 fabe d01a 50be
000000a0: 709f 3d3b 0118 c93e 6ec8 0c3d 250c cc3e
000000b0: 6c24 c43b 00cf 93bc ec5d f43e 057f 97be
000000c0: 4264 2bbe 3558 763e cbea 053e 2329 77be
000000d0: 564f 023e 92e6 093e 3ba6 803e 3c31 6b3e
000000e0: 39cb 0c3e 00a4 843d 928c c8be 6135 b6bc
000000f0: c383 a1bd 09b6 e23d 7b76 533e bab1 713e
00000100: 5179 d43d 005c c13e c03e 8dbe e446 ec3e
00000110: 1228 3cbd d6d8 b83e 80fe 863e 45c5 013e
00000120: c54e 743f f949 6d3f 285c 4e3c 86f4 203f
00000130: d286 9e3d 3a25 df3d 5e91 3dbc be84 5b3e
00000140: 2a47 203e 9a21 5d3e fc1d 4f3e fecd bc3e
00000150: 2b2d 4abe f8ec b8bd 6156 0a3e 76fb 423f
00000160: 25f2 e73c b167 bd3e 0cb7 8e3e 92cb 1e3e
00000170: f470 853e 95d6 4cbe 85eb 213f 6a0c ce3d
00000180: 7ca3 1abe 609a 123f 6b22 9c3e 291f c3bc
00000190: 6260 a43e 432b 063c 465d 48be 5c4d 843d
000001a0: dd7d d7be 5177 0b3f b71c 19be 6291 23bc
000001b0: d828 35be d1ed 31be 4d60 013f ac36 1f3e
000001c0: 9827 283e f524 113e 47ff c63c 12fb afbe
000001d0: f14e b3bd 60b2 9b3d 2c23 1e3f a9c1 b23d
000001e0: 7d1b 073e 2c1e fe3c 69ef 11bf 2c2f 9f3e
000001f0: ab06 fbbe d079 e83e afe8 dc3e 2429 063f
00000200: 2f08 b8be 8f32 11be d212 76bb 99b9 09bc
00000210: 5109 debd 1c18 a83e 7e5d 5c3e 44a7 7d3e
00000220: 5dff 7dbf 9c3a de3e caf0 f7bd 6733 35bf
00000230: faea 673e 8439 d5bd 7458 45be ec31 243e
00000240: f384 5d3d a7ae 38be 1f22 f33e 6d42 4abe
00000250: 0e08 173e 3994 7d3b 9779 42be b05b 8a3e
00000260: 3740 653d 828a dfbe c398 43be 3c82 3dbe
00000270: 73ed 1bbe 9838 813c f002 87be 39f2 83be
00000280: ee0d 7e3d aa3a db3e bdb2 d73e 9566 90be
00000290: 45b0 40be ad49 0c3e 7459 923d f767 4d3d
000002a0: 8c11 e23c 20bd cd3e a8bd ad3c a0f1 743e
000002b0: ea89 b6be 38a2 81bc a304 f73e 243e f63d
000002c0: 986f 203e d30b e93e 78e6 913d 39bd 293e
000002d0: f88b 7e3e 21c1 353f 70d5 afbe 59a8 e5be
000002e0: 4615 f8be acbb 02be c84f 7e3c 18ac 333e
000002f0: ee1e a0be 71e6 00be 710c a4be 69ce 32be
00000300: bee1 593e c6c3 193e 6546 9cbe b0f8 083c
00000310: 0f2b ffbe 24c5 7e3e d578 163f c6ca fe3d
00000320: 288f 603f 45e6 853e e9ba bd3e d317 f53e
00000330: 6818 91be 61bf 8e3d 225d a2bd ec16 003c
00000340: 7c31 09be cb70 323f d730 783e 372f 8d3d
00000350: 4ec9 b1be a0e2 9fbe cf89 5ebd 1964 8e3f
00000360: 92ca 5bbe 0390 333e 070b 033d 6993 303d
00000370: e451 093c 34b1 bfbd 3d07 273f e22f 83be
00000380: 9909 1ebd f46d d73e ee58 173f ab73 7b3d
00000390: 0031 aa3e 34ff 9dbe 8a2e 8abd aa4c 95be
000003a0: 2063 843e a04f ad3e ade5 1ebe 4280 263e
000003b0: 418b 003f b2a6 b83d 7837 d63e 7d84 06be
000003c0: d0dc 41bd 288a 403e 2151 bdbd 6f1c 83be
000003d0: 411c acbe cf9a 413f 5d71 923e 74c7 903e
000003e0: 0656 873e c8c9 8bbd 702d a1be 52da 60be
000003f0: 44d6 c2bd 0d6c a83e d8c5 333e 7275 c8ba
0.1811894 0.033240147 -0.060781315 0.17131473 -0.26135072 0.3408929 0.032960217 0.21914834
1.1991377 0.42833397 0.32450572 0.4670717 -0.18072832 0.16852236 0.018822618 0.03676224
0.031877957 -0.14063473 0.31286025 0.1533722 -0.48741454 -0.2815166 -0.11281215 0.07990351
-0.10206617 0.2584145 0.04540404 -0.0253784 -0.18191992 -0.31647283 0.3370399 0.14263253
0.0788835 0.4888745 0.59872967 -0.20284346 0.1585282 -0.036304366 -0.4893246 -0.20322728
0.0028934143 0.39276126 0.034370832 0.39853016 0.005985787 -0.018043041 0.47727907 -0.29589096
-0.16737464 0.24057086 0.13077848 -0.24136786 0.12725577 0.13466862 0.25126824 0.22968
0.13749398 0.06476593 -0.39169747 -0.02224225 -0.0788646 0.11069877 0.20650665 0.23602954
0.10374702 0.37765503 -0.27586937 0.46147835 -0.04593665 0.36102933 0.26366043 0.12672909
0.9543269 0.92691 0.012595214 0.62873113 0.07740559 0.10895772 -0.011570303 0.21437356
0.15652147 0.21594849 0.20226282 0.3687591 -0.19743793 -0.09029573 0.13509513 0.7616495
0.028313706 0.36993173 0.2787403 0.15507343 0.2606274 -0.20003732 0.6325 0.100609615
-0.15101427 0.5726681 0.3049501 -0.02381857 0.32104784 0.008189025 -0.19566831 0.06460068
-0.42088214 0.5447894 -0.1495236 -0.009983392 -0.17691362 -0.17375876 0.5053757 0.155482
0.16421354 0.14174254 0.024291648 -0.3437124 -0.08755291 0.07602382 0.6177242 0.08728344
0.1319408 0.031020246 -0.57005936 0.31090677 -0.49028525 0.45405436 0.43146273 0.52406526
-0.35943744 -0.14179443 -0.003754784 -0.008406066 -0.10841621 0.32830894 0.2152004 0.24770838
-0.9921778 0.4340409 -0.12106474 -0.7078156 0.2264823 -0.10411361 -0.19272023 0.16034669
0.05408187 -0.18035375 0.4748697 -0.19751902 0.14749166 0.0038693084 -0.18991695 0.27023077
0.055969443 -0.4366036 -0.19101243 -0.18506712 -0.15227298 0.015774056 -0.2636943 -0.2577074
0.062025003 0.42818195 0.42128554 -0.28203264 -0.18817241 0.1369998 0.07145968 0.050147977
0.027596258 0.40183353 0.0212086 0.23920298 -0.35652095 -0.015824422 0.48245725 0.12023571
0.1566757 0.45516834 0.071240366 0.16576089 0.24858081 0.70997816 -0.34342527 -0.44855002
-0.4845373 -0.12766904 0.015521951 0.17546117 -0.31273597 -0.12587906 -0.32040742 -0.17461552
0.2127752 0.15016088 -0.30522457 0.008360073 -0.4983754 0.2487989 0.58778125 0.1244102
0.8771844 0.26152244 0.37056664 0.4786974 -0.28338933 0.069700964 -0.0792792 0.007817965
-0.13397783 0.6970336 0.24237381 0.06893771 -0.34723896 -0.3122759 -0.054330643 1.1124297
-0.21463993 0.17535405 0.03199294 0.04310933 0.008381341 -0.09359971 0.6524542 -0.2562247
-0.03858337 0.42076075 0.5912007 0.061389606 0.3324051 -0.30858767 -0.06747158 -0.29160053
0.25856876 0.33849812 -0.15517302 0.16259864 0.50212485 0.090161696 0.41839194 -0.13136478
-0.047329724 0.18802702 -0.0924399 -0.2560763 -0.33615306 0.75626844 0.28602114 0.2827717
0.26432818 -0.06825596 -0.3147998 -0.21958283 -0.09513524 0.32894936 0.1755594 -0.001529379

lstm.bias_hh_l0 f4 [256]
00000000: d5eb 7b3e 3e43 1fbe 4837 8d3d 8d98 323e
00000010: 7fee 40be 9fae 863e 1247 8b3d c144 da3e
00000020: f0a2 9d3f a59a 973e 2f0a ce3e 1708 233f
00000030: ec74 2ebe eedd c43d 823a 833c b3cc 19bd
00000040: 7862 863d b1d3 55be e48f c73e fe27 573e
00000050: 3011 debe 64f5 f4bd 2c64 923c 0f12 773c
00000060: 3855 6b3b ae51 803e dbd9 ca3d e546 49be
00000070: ddcb 3fbe d9aa 24be 154d 3a3e db98 833c
00000080: 5b0a 663e 279a 303f 1b7b 3a3f beec 23be
00000090: eb6b 663c e4ea c43c 019b ddbe fcbf 67be
000000a0: 7d09 6f3e 833c 973e 15a0 eb3c b54c a23e
000000b0: 4635 2a3e 1cb1 0dbe d804 c43e 83bb a8be
000000c0: 0688 0fbe 0358 923e 637f 153d 0ffb 38bd
000000d0: be9d efb7 6717 083e 00a9 e73e 3246 4c3e
000000e0: 3809 583e bbfa fb3d 1602 d6be 747f 483d
000000f0: 21dc 11be 6359 2bbb efec 8c3e 10a2 e53e
00000100: df40 a63d 2ce1 0b3f f070 efbe 3a62 d93e
00000110: bec8 1fbe 52c2 b63e 8fd1 a43d a8c3 033e
00000120: 5913 633f a3e6 563f 5d42 89bd dc09 0d3f
00000130: 50fd 833d d064 9b3d 5249 18bd a59c b73d
00000140: b6af 743c b237 223e d85f 483e 228c cf3e
00000150: e631 c2bd d7a6 523d bed0 b7bd 8ab4 603f
00000160: 7024 823d ffa9 cb3e 9eaa ce3e 9356 503e
00000170: 6817 8b3e 1300 97be 9fee 153f 06ac 2b3e
00000180: 1296 88bd 08a9 1a3f a938 b13e f102 4b3d
00000190: 1027 b53e 4c12 5c3d 8179 92be 1f03 373e
000001a0: a1c4 bfbe 9808 ec3e 6f6d 54bd 6aca 6e3d
000001b0: d3d6 60be 553b 46bd 7e5d 033f 3c5d d53c
000001c0: b9be 333d 2699 6f3e 9bb2 bb3d a7cd 00bf
000001d0: 6241 22bd 96e9 003e e456 253f b396 c33d
000001e0: 2692 1a3e 3cad 173e d572 dfbe fb4c 533e
000001f0: d5f5 e2be e01d cc3e c7bc fc3e 4cba c73e
00000200: 9d5b a6be f0bf d6bd 85a3 2fbe 9752 70bd
00000210: df66 e4bd 8d87 3b3e 6cce f93d c876 593e
00000220: cfa4 5cbf 702c 063f cbb2 18be dfee 1dbf
00000230: b3f7 313c 7c2f b8bc a66c 3abe b04f 513e
00000240: a4be 0e3e 8b8d 3ebe 7f6d d93e 17a8 fdbd
00000250: c352 ee3d a999 d6bc c9d1 5ebe 38c0 893e
00000260: e5ee 843e 1a3b cabe ecc0 68bd 3ffb 92bd
00000270: 67f7 debd 84cf 213e 5827 8abe 7dcd 1ebe
00000280: 06bf 283e 2811 153f 6bad 9a3e 7d0f 98be
00000290: 73a4 bdbd ee99 c83b 9d19 803e 0d85 933d
000002a0: 6cba 94bd 3424 a63e 74c9 42be 0bb9 a73e
000002b0: 7212 a9be 3c75 d9bd 292b 1f3f ec89 ef3d
000002c0: 2fbc a43e ab4c d33e b175 0fbc ef91 ed3d
000002d0: e0c6 e73d bbf4 223f d0f9 ccbe 8143 c5be
000002e0: 3897 07bf 5f56 33bd bae7 f83d 62d7 333e
000002f0: 03ae 8abe f645 49be 0743 febe cac6 31be
00000300: 1a51 293e deb6 6c3e e5a5 8ebe 97ab a1bd
00000310: 9602 06bf eba8 073e fee8 e53e 95c7 353d
00000320: 7ad4 8b3f 8a99 803e 6339 db3e 6369 ed3e
00000330: 623f 96be c345 f03d d9db 3eba d18c 973c
00000340: aa94 bcbc 0505 4a3f 7fcd 3d3e bb5e a9bd
00000350: de04 d5be 6e09 07be 2b85 9ebc 7179 8c3f
00000360: 42d0 ccbe 2843 823d 502b 15bb 200a 6c3c
00000370: bc74 97bb 52c6 01be a78d 123f 8cb1 90be
00000380: 4db7 ffbd 4629 a73e bc49 2f3f 6c4d 7cbc
00000390: 8537 663e 251d abbe 39f6 72be 5808 90be
000003a0: 19bd 453d a692 b03e 88ee ebbb e8a8 4b3e
000003b0: fbd7 0d3f 6ae1 9bbd c684 bb3e 02fd 8bbd
000003c0: 5f80 3dbe 3228 493e c324 3c3d d688 93bd
000003d0: ac01 64be 8b91 393f f192 5e3e b85e 613e
000003e0: 6f96 d83d 5f6b 213c 5e8b 99be 7a00 39be
000003f0: 706a 2f38 280c ed3e 4d6d b23c d97f 19be
0.24601682 -0.15552995 0.0689531 0.17441006 -0.18840979 0.263051 0.06800665 0.4263058
1.231535 0.29610172 0.40242144 0.6368422 -0.1703679 0.09612642 0.01601911 -0.037548732
0.0656175 -0.20881535 0.38976967 0.2101135 -0.43372488 -0.11960867 0.017870031 0.015079989
0.0035908949 0.25062317 0.09904834 -0.1965595 -0.18730111 -0.16080798 0.18193467 0.016064098
0.22464888 0.6898522 0.72844094 -0.16008279 0.014063816 0.024037786 -0.4328232 -0.2263183
0.23343463 0.29538354 0.028762856 0.31699148 0.16621885 -0.13837093 0.38284945 -0.3295556
-0.14016733 0.28582773 0.03649844 -0.045161303 -2.8564475e-05 0.13290177 0.45246124 0.19948652
0.21097267 0.123036824 -0.41798466 0.048949674 -0.14244129 -0.0026145808 0.27524516 0.44850206
0.08117842 0.5464046 -0.46765852 0.42457753 -0.15603921 0.3569513 0.08047783 0.12867606
0.887014 0.83945674 -0.06702111 0.5509317 0.064448 0.07587588 -0.0371793 0.089654244
0.014934471 0.15841559 0.19567811 0.405366 -0.094821736 0.051428642 -0.08975361 0.8777548
0.06354606 0.39778134 0.40364546 0.20345525 0.27166295 -0.29492244 0.5856723 0.1676484
-0.06669249 0.6041417 0.3461354 0.049563352 0.35381365 0.053728387 -0.28608325 0.17872284
-0.37454703 0.46100307 -0.051862177 0.058298506 -0.21956949 -0.048396427 0.5131453 0.026045434
0.04388306 0.23398265 0.09164926 -0.503138 -0.039613135 0.12589106 0.6458571 0.09550228
0.15094814 0.14812177 -0.43642297 0.20634834 -0.4432818 0.39866543 0.49362776 0.3900932
-0.3249177 -0.10485828 -0.17152222 -0.058672514 -0.111524336 0.18313427 0.12197575 0.21236718
-0.8618898 0.52411556 -0.14911954 -0.61692613 0.010862279 -0.02248358 -0.18205509 0.20440555
0.13939911 -0.18608682 0.4246635 -0.12385576 0.11636879 -0.026196318 -0.21759714 0.26904464
0.25963512 -0.39498216 -0.05682461 -0.07176828 -0.10887032 0.15801817 -0.26983142 -0.15508075
0.1647912 0.58229303 0.30210432 -0.29699317 -0.09259882 0.0061218655 0.2501954 0.07203112
-0.0726212 0.32449496 -0.19022161 0.32758364 -0.33021885 -0.10618064 0.6217523 0.116962284
0.32174823 0.4126943 -0.008756087 0.116001 0.11317229 0.6365468 -0.40034342 -0.38528064
-0.52965117 -0.04378354 0.12153573 0.17562631 -0.27085885 -0.19655594 -0.49660513 -0.17360988
0.16534844 0.23116633 -0.27860942 -0.07894056 -0.52347696 0.13248031 0.4490432 0.04437979
1.0924218 0.2511714 0.4281722 0.46369466 -0.29345232 0.11732056 -0.00072806847 0.018499764
-0.023020107 0.7891391 0.18535422 -0.082700215 -0.41605276 -0.13187191 -0.019350609 1.0974561
-0.40002638 0.06360465 -0.0022761412 0.014406711 -0.00462207 -0.1267331 0.57247394 -0.28260458
-0.12486134 0.32648677 0.68471885 -0.015399318 0.22482117 -0.33420673 -0.23726739 -0.28131366
0.04827604 0.34486884 -0.007200066 0.19888651 0.55407685 -0.07611354 0.36624736 -0.06835367
-0.18506001 0.1964424 0.045933496 -0.07203834 -0.22266263 0.72487706 0.21735741 0.22008789
0.10575568 0.009852259 -0.2998914 -0.18066588 4.182238e-05 0.46298337 0.021780634 -0.14990176

fc.weight f4 [1, 64]
00000000: 7f1f 67c0 44ed 98bf 5c85 f53f 008b 9540
00000010: 97ab 8cc0 df8e 9e3f bb08 ad3f 68b8 9e3f
00000020: 545d 8cbf 84fb a03f b409 a0bf 20fb 9fbf
00000030: fbad 9a40 2735 76c0 c14b 8a40 0c40 3f40
00000040: 54cd 933f 5939 2fbf 807d a13f ae06 abbf
00000050: 4636 1d41 9a05 34c0 c18f a0c0 2099 08c0
00000060: 951e 933f 8bc8 acbf a684 95bf ac7a 6ec0
00000070: 3809 b9bf 47e7 9b40 ad5f 0bc0 eed5 a7bf
00000080: 0a94 02c0 d40e b13f fb1c 8e3f 0a94 06bf
00000090: 8144 38bf 7903 9c40 b052 a041 811c 3ac0
000000a0: d5cf abc0 e997 963f 0dfe 94bf e7dd 9d3f
000000b0: d234 dcc0 e5ed 0ac0 f41c c03f ae7d abbf
000000c0: 78fb 8c40 7bae 9a3f 46aa 64c0 43b5 5fc0
000000d0: 48e8 3c3f bf7e 853f 1564 9bbf dec2 a3bf
000000e0: 5807 3f3f 5fed 8940 d56d 3b41 4794 e73f
000000f0: b11b 2b3e 90c6 7e3f dbd1 a9bf 44b6 dc3e
-3.6112974 -1.1947408 1.9181323 4.673218 -4.395946 1.2387351 1.3518289 1.2400026
-1.0965981 1.2576756 -1.2502961 -1.2498512 4.833738 -3.8469942 4.3217473 2.988284
1.1547036 -0.6844688 1.2616425 -1.3361413 9.82575 -2.812842 -5.017548 -2.134346
1.1493708 -1.3498701 -1.1681106 -3.7262373 -1.4455938 4.871982 -2.1777146 -1.3112161
-2.0402856 1.383265 1.1102594 -0.5256964 -0.7197953 4.875424 20.040375 -2.9079897
-5.36912 1.1765109 -1.164003 1.2333344 -6.881448 -2.17077 1.5008836 -1.3397729
4.405697 1.2084497 -3.5728927 -3.4954383 0.73791933 1.0429305 -1.2139918 -1.2793844
0.7462058 4.310226 11.714314 1.8092126 0.16709782 0.9952173 -1.3267168 0.43107808
