model/LSTM/lstm_model.pth (torch, 77049 bytes, 5 tensors)

lstm.weight_ih_l0 f4 [256, 6]
0	0xbd0801cb	-0.033204835
1	0xbd945557	-0.0724284
2	0xbe9219c5	-0.28535286
3	0x3e559ba7	0.20860158
4	0xbee0144c	-0.43765485
5	0xbebc1fcc	-0.3674301
6	0x3e7c2241	0.24622442
7	0x3eb0dd29	0.34543732
8	0xbe82431a	-0.2544182
9	0x3e488bea	0.19584623
10	0xbdfdd916	-0.123949215
11	0xbdc2972c	-0.0950149
12	0x3ebf5595	0.3736998
13	0xbc578877	-0.013155094
14	0xbe63b0ca	-0.22235408
15	0x3e2dc843	0.16970925
16	0xbda6ff5d	-0.081541754
17	0x3d0e5fd4	0.034759358
18	0x3ca3cb19	0.019994305
19	0x3ee17e6a	0.4404176
20	0xbe9e1810	-0.30877733
21	0xbd61880c	-0.055061385
22	0xbd9e7b3a	-0.07738347
23	0xbed7c34f	-0.42141196
24	0xbf01dda5	-0.5072883
25	0xbe365eaf	-0.17809556
26	0xbeecc530	-0.46244192
27	0xbe85b9b3	-0.2611824
28	0xbef6c608	-0.4819796
29	0xbf2a08c4	-0.66419625
30	0xbe934ba1	-0.28768638
31	0x3e291ac8	0.16514122
32	0xbf502856	-0.8131155
33	0xbdbcc66f	-0.09217536
34	0xbf471775	-0.7777017
35	0xbf481059	-0.78149945
36	0x3e3ec713	0.18630628
37	0xbe3dbb2a	-0.18528429
38	0xbece446f	-0.40286586
39	0x3e6df0ec	0.23236436
40	0xbed25b13	-0.4108511
41	0xbe134111	-0.1438029
42	0x3e9f1146	0.31067866
43	0x3e3cc13d	0.1843309
44	0xbea87a4b	-0.32905802
45	0x3de863bb	0.11347147
46	0xbebaa5ad	-0.36454526
47	0xbea214a1	-0.31656364
48	0x3f8fc23d	1.1231152
49	0x3f793c41	0.97357565
50	0x3ed0e7a7	0.40801737
51	0x3faedbaf	1.3660792
52	0x3ee93af7	0.455528
53	0x3f2752ab	0.65360516
54	0x3ec20e22	0.37901407
55	0x3f47065a	0.77744067
56	0xbe2277c3	-0.15865998
57	0x3ef94f02	0.4869309
58	0xbdca7531	-0.09885634
59	0xbe362b6b	-0.1779
60	0x3ecff1b7	0.406141
61	0x3f7551cc	0.9582794
62	0x3e18d887	0.14926349
63	0x3f4c36a3	0.7977087
64	0x3ce1abcf	0.027547745
65	0xbdb53d34	-0.08849564
66	0x3ed363ff	0.41287228
67	0x400b9a2d	2.1812851
68	0xbe16c11e	-0.14722106
69	0x400686c7	2.1019762
70	0xbdf21d4c	-0.11821994
71	0xbe6a100a	-0.22857681
72	0xbc925db7	-0.017866952
73	0xbe38be94	-0.1804145
74	0xbeaf378f	-0.34222075
75	0xbdb96acd	-0.09053574
76	0xbece109e	-0.40247053
77	0xbeb0c331	-0.3452392
78	0xbef1fd7c	-0.47263706
79	0x3b14ee30	0.0022724979
80	0xbf2dcc74	-0.67890096
81	0xbe97474d	-0.29546586
82	0xbf02d11a	-0.51100314
83	0xbf1b4bb3	-0.6066238
84	0x3e202a30	0.15641093
85	0x3cac9f0a	0.02107193
86	0xbe1ddeae	-0.15416977
87	0xbe1fc885	-0.15603836
88	0xbd77fb88	-0.060542613
89	0xbd9cfe5f	-0.07665705
90	0xbe328fd2	-0.17437676
91	0xbf8dd723	-1.108128
92	0xbd7fa4eb	-0.062413137
93	0xbfbec23c	-1.4903026
94	0x3caa96b1	0.020823808
95	0xbdca5e63	-0.09881284
96	0xbe402b80	-0.18766594
97	0x3ed8f1d8	0.42372012
98	0xbf104133	-0.56349486
99	0x3e86e9fe	0.26350397
100	0xbededc77	-0.43527576
101	0xbf211831	-0.6292754
102	0xbe8ce1d5	-0.27516046
103	0x3eacf5fc	0.3378142
104	0xbda99bec	-0.08281693
105	0x3c450264	0.012024496
106	0xbe2b0a7e	-0.16703221
107	0xbe9eb742	-0.3099919
108	0xbc09937f	-0.008396982
109	0xbdad2459	-0.084541984
110	0xbe382c87	-0.17985736
111	0xbe34c62b	-0.1765372
112	0xbdf590d2	-0.11990513
113	0xbebfb275	-0.3744084
114	0xbefc04d2	-0.49222428
115	0xbefb13f8	-0.49038672
116	0xbf27a25f	-0.65482134
117	0x3d5f4970	0.054513395
118	0xbf21869a	-0.6309601
119	0xbee20bb2	-0.44149548
120	0xbf345e4d	-0.7045639
121	0xbed4fa87	-0.41597387
122	0xbed32818	-0.41241527
123	0xbf54b7b9	-0.8309284
124	0xbee3b743	-0.44475755
125	0xbf470072	-0.77735054
126	0x3e7bb65c	0.24581283
127	0x3db05c73	0.08611383
128	0x3d84f0d7	0.06491249
129	0x3ef39c86	0.47580355
130	0x3e053400	0.13008118
131	0x3e2d4f3b	0.16924755
132	0x3ed371c5	0.41297737
133	0x3ecf4981	0.40485767
134	0x3dc16acf	0.094442
135	0x3f2fd6b7	0.68687004
136	0xbd9c4961	-0.076311834
137	0x3bac31f2	0.0052549774
138	0x3f37d68e	0.7181176
139	0x3fee1233	1.8599304
140	0x3ead1591	0.33805516
141	0x3fc904cd	1.570459
142	0x3ec70739	0.38872698
143	0x3e4c5bc5	0.19956882
144	0xbb9034a0	-0.0044008046
145	0x3e7e2770	0.24819732
146	0x3b93e4c7	0.0045133564
147	0xbce4aee1	-0.02791542
148	0xbe362c10	-0.17790246
149	0xbe362a70	-0.17789626
150	0x3d90a51e	0.070627436
151	0x3e883a68	0.2660706
152	0xbd83f990	-0.06444085
153	0x3e183af9	0.14866246
154	0xbce589bc	-0.028019778
155	0xbea6e188	-0.32593942
156	0xbf2015c5	-0.6253322
157	0xbed7786f	-0.4208407
158	0xbe00f6de	-0.12594172
159	0xbf8b2dec	-1.0873389
160	0xbe18f2bd	-0.14936347
161	0xbee28fd0	-0.44250345
162	0x3ea491e2	0.3214255
163	0x3ec70b93	0.38876018
164	0xbdbbf691	-0.09177888
165	0x3ea1009d	0.3144578
166	0xbe39ef61	-0.18157722
167	0x3db4b596	0.08823697
168	0x3ebfb6fb	0.3744429
169	0x3fd176d4	1.6364388
170	0xbd993fe2	-0.07482888
171	0x3fc59a21	1.5437661
172	0xbd9445c4	-0.07239869
173	0xbe50712a	-0.20355669
174	0xbda77c2f	-0.08177983
175	0x3de9b921	0.11412264
176	0xbe99ad8e	-0.30015224
177	0xbdff7699	-0.124737926
178	0xbe8744c2	-0.26419646
179	0xbe9e4cf0	-0.30918074
180	0x3f0de538	0.55427885
181	0x3ebf3a95	0.37349382
182	0x3e3234db	0.17402975
183	0x3e636791	0.22207476
184	0x3da54615	0.08070008
185	0x3e079019	0.13238563
186	0x3e2661a5	0.16248186
187	0x3e995412	0.29946953
188	0x3da0f9ca	0.078601435
189	0x3e9ee249	0.31032017
190	0xbe1bf918	-0.1523174
191	0xbd883e53	-0.066525124
192	0xbcd54389	-0.02603318
193	0x3e2a6c6c	0.16642922
194	0xbdd84ba6	-0.10561304
195	0xbd55377b	-0.052054863
196	0xbdd14456	-0.10218112
197	0xbea6f7a9	-0.32610825
198	0xbf023246	-0.5085796
199	0xbf1d56de	-0.61460674
200	0xbdfa5ae7	-0.122243695
201	0xbf7647a4	-0.96203065
202	0xbe06f826	-0.13180599
203	0xbeb4504e	-0.35217518
204	0x3d746966	0.05967083
205	0x3ea483f9	0.32131937
206	0xbe8d6be7	-0.27621385
207	0xbcc0a1aa	-0.023514587
208	0xbe3cc6fd	-0.18435283
209	0xbe6e24bc	-0.232562
210	0x3e7003a0	0.23438883
211	0x400c0ed9	2.1884062
212	0xbe9f2197	-0.31080315
213	0x3fe3315d	1.774944
214	0xbe8bf256	-0.27333325
215	0xbe8bf586	-0.27335757
216	0x3e8e97d8	0.27850223
217	0xbc763394	-0.015026946
218	0x3e5096b8	0.20369995
219	0xbe1ccb1e	-0.15311858
220	0x3dcf8ad9	0.10133905
221	0x3d863f92	0.06555094
222	0x3ed04516	0.40677708
223	0x3f0caf24	0.54954743
224	0x3e16c3aa	0.14723077
225	0x3e9bacc1	0.30405238
226	0x3de288ad	0.11061225
227	0x3e0bdbab	0.13658015
228	0xbdd5adb5	-0.104335226
229	0x3e22a91c	0.15884823
230	0x3e35ab0e	0.17741033
231	0xbe785295	-0.24250253
232	0x3cfd3abc	0.030911796
233	0xbe9cd1ca	-0.30628806
234	0xbd752198	-0.05984649
235	0x3e818dd0	0.25303507
236	0xbe1e5e5d	-0.15465684
237	0x3f0040f2	0.500991
238	0xbe337608	-0.17525494
239	0xbe52145e	-0.20515582
240	0xbe5f285a	-0.21792737
241	0xc00d6697	-2.2093866
242	0x3cbb9bb6	0.022901397
243	0xc024e7d6	-2.5766501
244	0x3d9c89da	0.076434806
245	0xbe0ac497	-0.13551556
246	0xbdcebc93	-0.100945614
247	0xbec5b2bd	-0.3861293
248	0xbeb643da	-0.35598642
249	0xbf0d481e	-0.5518817
250	0xbe89c87e	-0.26910776
251	0xbeab804b	-0.33496317
252	0x3ead3e06	0.33836383
253	0x3e69f8af	0.22848772
254	0xbeb53201	-0.35389712
255	0x3da03810	0.07823193

lstm.weight_hh_l0 f4 [256, 64]
0	0xbf8d3ab5	-1.1033541
1	0x3e99cb49	0.30037907
2	0xbec0ab7a	-0.37630826
3	0xbe41e732	-0.1893585
4	0xbec75d86	-0.3893854
5	0xbe00910e	-0.12555334
6	0x3ed88ed1	0.4229646
7	0x3e90d239	0.28285387
8	0xbdd13c94	-0.102166325
9	0xbe3e9ff2	-0.18615702
10	0x3e9bb8a5	0.3041431
11	0xbec8745b	-0.39151272
12	0x3f803f6c	1.0019355
13	0x3e62d1dd	0.22150369
14	0x3ed805c4	0.421919
15	0xbed2566f	-0.4108157
16	0x3e496852	0.19668701
17	0x3e87892d	0.26471844
18	0x3f240474	0.64069295
19	0x3f0d554e	0.5520829
20	0x3e2224c6	0.1583434
21	0x3e2839ea	0.16428342
22	0xbf374d8b	-0.71602696
23	0x3d45dcb9	0.0483062
24	0xbeab7df0	-0.3349452
25	0x3ecea98e	0.40363735
26	0xbed573de	-0.41689962
27	0xbd6652bb	-0.05623124
28	0xbea6a0e5	-0.32544628
29	0xbd88f3ee	-0.06687151
30	0xbe8539bf	-0.2602062
31	0x3e30ab78	0.1725291
32	0x3e09cf3c	0.1345796
33	0xbe8a3032	-0.26989895
34	0xbd73ff3f	-0.059569594
35	0xbe5927a3	-0.21206526
36	0xbf7d9e3d	-0.9906958
37	0xbda3d48c	-0.079995245
38	0x3da7abc3	0.08187058
39	0xbf374019	-0.7158218
40	0xbdff9ad7	-0.12480705
41	0x3edba2be	0.428976
42	0xbe8bde1b	-0.2731789
43	0xbe361ed4	-0.17785197
44	0xbe2c20e0	-0.16809416
45	0xbe0b241e	-0.13587996
46	0xbf5afe74	-0.85544515
47	0xbdadb685	-0.084820785
48	0x3f4830d5	0.7819951
49	0x3edc6973	0.430492
50	0x3e392999	0.18082274
51	0xbd56aaf4	-0.052409127
52	0x3ecadd68	0.39622045
53	0x3ee3fc6e	0.44528526
54	0xbf3f78e6	-0.7479385
55	0xbf1f472f	-0.6221799
56	0xbd34f5dc	-0.044179782
57	0xbe7fa45b	-0.2496504
58	0x3efb3bb9	0.49069002
59	0x3f359a3a	0.70938456
60	0xbe46a0b3	-0.1939724
61	0x3e0860b3	0.13318138
62	0xbd7d78d7	-0.06188282
63	0xbe00b32f	-0.12568353
64	0x3f02035b	0.5078637
65	0x3e88e348	0.26735902
66	0x3e5ce597	0.21571957
67	0xbccd5291	-0.025063785
68	0x3ec678e3	0.38764104
69	0x3eced434	0.40396273
70	0xbf14504d	-0.5793503
71	0x3d5d8377	0.054080453
72	0x3f1424a5	0.57868415
73	0x3dced70e	0.10099612
74	0xbed3919c	-0.4132203
75	0xbc82c73f	-0.015964149
76	0xbe82152c	-0.25406778
77	0xbf04a752	-0.5181781
78	0xbc8da7c0	-0.017291903
79	0x3d686799	0.056739423
80	0x3dd2679a	0.10273667
81	0x3dac0cd7	0.084008865
82	0xbe0bdfa9	-0.13659538
83	0xbeb70c82	-0.3575173
84	0x3d2af702	0.04173947
85	0xbebcc5a8	-0.3686955
86	0x3e2ba6b2	0.16762808
87	0xbf0defeb	-0.5544421
88	0xbdc3888c	-0.095475286
89	0x3d892455	0.06696383
90	0xbd8378e4	-0.064195424
91	0x3f0c22f9	0.54740864
92	0x3f1781bc	0.59182334
93	0x3f021b06	0.50822484
94	0x3ebb420c	0.36573827
95	0x3bc886eb	0.006119599
96	0x3cfa5f74	0.030563094
97	0xbe2ea502	-0.17055133
98	0xbdb0d626	-0.086345956
99	0x3eff1a7b	0.4982489
100	0x3ec966bb	0.3933619
101	0x3f1a2f0c	0.6022804
102	0x3e0fb64b	0.14034383
103	0x3e784f6a	0.24249044
104	0xbf10d47c	-0.56574225
105	0xbece043f	-0.40237615
106	0xbe108466	-0.14113006
107	0xbf0ec9df	-0.5577678
108	0x3e8ae7bb	0.2712992
109	0x3ec03560	0.37540722
110	0xbe7070a2	-0.23480466
111	0x3e8f85e9	0.28031853
112	0xbe86036b	-0.26174483
113	0xbf15f891	-0.5858241
114	0xbf27c51e	-0.6553515
115	0x3ebec2de	0.37258047
116	0xbec25ace	-0.37959903
117	0xbeecc481	-0.4624367
118	0x3e5040f2	0.20337275
119	0x3eace801	0.33770755
120	0xbe935f11	-0.28783467
121	0x3f0be9a4	0.5465338
122	0xbed70c85	-0.4200174
123	0xbe82f424	-0.2557689
124	0x3f0f4878	0.55969954
125	0xbf159958	-0.5843711
126	0x3f13e1ad	0.5776623
127	0xbef40c99	-0.4766586
128	0xbf070c9f	-0.52753633
129	0x3d4e2ace	0.05033379
130	0xbf374e12	-0.716035
131	0x3d00dcf2	0.03146071
132	0xbf1a1b2f	-0.6019773
133	0xbefc76aa	-0.49309283
134	0x3e90d7ca	0.28289634
135	0x3d45da65	0.04830398
136	0xbe190314	-0.1494258
137	0xbe078b81	-0.1323681
138	0x3ee93e9b	0.45555577
139	0xbce85bf5	-0.028364161
140	0x3f6327ac	0.8873241
141	0x3e6b6bb6	0.22990307
142	0x3d830de6	0.06399135
143	0xbe2b4d87	-0.16728793
144	0x3df68478	0.12036985
145	0x3dae9b63	0.085257314
146	0x3ef24d28	0.4732449
147	0x3ef3020c	0.474625
148	0x3e1c5adb	0.15269034
149	0x3e9d328b	0.30702624
150	0xbf130a82	-0.5743791
151	0x3e75c58d	0.24001141
152	0xbe84b9ff	-0.25923154
153	0x3e507f11	0.20360972
154	0xbd9a49a1	-0.07533575
155	0xbef87392	-0.48525673
156	0xbe832cbb	-0.25620064
157	0xbe452700	-0.19253159
158	0xbed64379	-0.41848353
159	0xbc36ef22	-0.011165412
160	0x3e341dd8	0.1758951
161	0xbe434ba5	-0.19071825
162	0xbd3e4a74	-0.046457723
163	0xbe91053f	-0.28324315
164	0xbf0a769b	-0.5408723
165	0xbecf3600	-0.40470886
166	0x3da54a96	0.08070867
167	0xbee377c8	-0.44427323
168	0xbd895cbd	-0.067071415
169	0x3ef6ae13	0.48179683
170	0xbd014a8b	-0.03156523
171	0x3d06cef5	0.032912213
172	0xbed25b46	-0.4108526
173	0xbeae8c3b	-0.34091362
174	0xbf1b347e	-0.6062697
175	0x3d9dc67f	0.07703876
176	0x3ecc9061	0.39953902
177	0x3f0217db	0.5081765
178	0x3eb79485	0.358555
179	0xbef0b0e4	-0.47009957
180	0x3ec5c334	0.3862549
181	0x3f04e312	0.5190898
182	0xbf21b677	-0.63169044
183	0xbf3375c9	-0.701016
184	0x3d7db280	0.06193781
185	0xbd952648	-0.07282692
186	0x3eb53f93	0.35400066
187	0x3f2825fe	0.6568297
188	0x3e0739be	0.1320562
189	0x3ef9de78	0.48802543
190	0xbe683bee	-0.22679111
191	0x3ed0a4cb	0.40750727
192	0x3dd60659	0.104504295
193	0x3e8eb0a7	0.2786915
194	0xbcd5e966	-0.02611227
195	0x3c96d435	0.018411735
196	0xbd58b253	-0.05290444
197	0x3e291be3	0.16514544
198	0xbe5546cf	-0.20827793
199	0xbd4407ce	-0.047859006
200	0x3e0c3d5c	0.13695282
201	0xbd2090df	-0.03920066
202	0x3e0de86e	0.13858196
203	0x3ec87a10	0.39155626
204	0xbe492779	-0.19643964
205	0x3e92980a	0.28631622
206	0xbea7f390	-0.3280301
207	0x3e7b5c0c	0.24546832
208	0x3dd21ebb	0.102597676
209	0x3e472dac	0.19451016
210	0xbd4d4eca	-0.050123967
211	0xbe635533	-0.2220047
212	0xbe5426d3	-0.20717935
213	0x3dd226aa	0.10261281
214	0x3e44db42	0.19224265
215	0xbe4c6ef3	-0.19964199
216	0xbda8f889	-0.08250529
217	0xbb027a7c	-0.0019909432
218	0xbdeed0b6	-0.11660902
219	0xbce8aec6	-0.028403651
220	0x3e80311b	0.25037464
221	0x3be93e90	0.0071180537
222	0xbe1c7c70	-0.15281844
223	0x3e2ff5f4	0.17183667
224	0x3e5bbfa0	0.21459818
225	0xbd8378d5	-0.06419531
226	0xbe1db614	-0.15401489
227	0xbd9bf42c	-0.076149315
228	0xbe3b0af8	-0.18265903
229	0x3e08d6a0	0.13363123
230	0xbca7ed16	-0.020498794
231	0x3db5e8e0	0.08882308
232	0xbb854516	-0.0040670736
233	0x3ec5fe6c	0.3867067
234	0xbdaf744c	-0.08567104
235	0xbdaa9268	-0.08328706
236	0xbe638380	-0.22218132
237	0x3d00e5d5	0.031469185
238	0x3dc40b4f	0.095724694
239	0xbea4d6d1	-0.32195142
240	0x3dabc613	0.08387389
241	0xbe0f8211	-0.1401446
242	0xbde0c565	-0.1097515
243	0xbe682e4a	-0.22673908
244	0x3e0f0dcd	0.13970108
245	0xbe53e9b3	-0.20694618
246	0x3da98279	0.08276839
247	0xbd19a47f	-0.03751039
248	0xbeaf1753	-0.34197482
249	0x3db01427	0.08597594
250	0x3d928c27	0.07155638
251	0xbe3bfcd1	-0.1835816
252	0x3da2bc8b	0.07946118
253	0xbe3bd4d1	-0.18342902
254	0x3e2efe03	0.17089085
255	0x3e550c57	0.20805489

lstm.bias_ih_l0 f4 [256]
0	0x3e836ac6	0.256674
1	0x3ef57600	0.4794159
2	0x3e6fb54e	0.23409006
3	0x3d9164a2	0.07099272
4	0x3f1d955f	0.6155605
5	0x3f2ab71d	0.6668566
6	0x3e5f1f3a	0.21789256
7	0x3ec44ab7	0.38338253
8	0xbebba2d8	-0.36647677
9	0x3e416656	0.18886694
10	0x3cdc3f26	0.02688558
11	0x3d9f9c62	0.077934995
12	0x3ea05779	0.31316736
13	0x3f095e8b	0.53659886
14	0x3d73230f	0.059359606
15	0xbe09e08b	-0.13464563
16	0x3f058723	0.5215933
17	0x3ed84602	0.42240912
18	0x3e77f755	0.24215443
19	0x3f1fcceb	0.62422055
20	0x3f0537f0	0.5203848
21	0xbd21844d	-0.039432812
22	0x3b776980	0.0037752092
23	0xbe110c5c	-0.14164871
24	0x3e84e9b1	0.25959542
25	0x3e799854	0.24374515
26	0x3d5b439b	0.05353127
27	0x3d9bb349	0.07602555
28	0x3dab5dcb	0.08367499
29	0x3ea93595	0.33048692
30	0xbe0ae00e	-0.13562033
31	0x3c14dfdb	0.009086574
32	0x3e22e407	0.15907298
33	0x3e762689	0.24038137
34	0x3e48a331	0.19593503
35	0x3e82dec2	0.25560576
36	0xbd395abd	-0.04525255
37	0xbdcc7731	-0.099836715
38	0x3d3d292d	0.046181846
39	0x3e9698c4	0.29413426
40	0xbe3381a2	-0.1752992
41	0x3e86893a	0.2627657
42	0x3e9d444a	0.30716163
43	0x3f03b49c	0.51447463
44	0x3f43a05b	0.7641656
45	0x3ec52d6e	0.38511223
46	0x3f1b6d10	0.6071329
47	0x3f0890d7	0.5334601
48	0x3e9d82a9	0.30763748
49	0x3ee90640	0.4551258
50	0xbe33ed37	-0.17570959
51	0x3e754a8c	0.23954219
52	0x3f02a805	0.5103763
53	0xbdddca9e	-0.10829662
54	0x3f703883	0.9383623
55	0x3eca3dd2	0.3950029
56	0x3eb15463	0.34634694
57	0xbb0e3c4e	-0.0021703425
58	0x3ed8005e	0.4218778
59	0x3ec6c498	0.38821864
60	0x3e1f96d1	0.15584876
61	0xbe2cbd1f	-0.16869019
62	0xbee8db8a	-0.45479995
63	0xbe039b10	-0.1285212
64	0xbd17c821	-0.037056092
65	0x3f28cc12	0.65936387
66	0x3ef43a91	0.47700933
67	0x3d8cb26e	0.0686997
68	0x3f536cc2	0.82587826
69	0x3f118150	0.5683794
70	0x3f5d705d	0.8649958
71	0x3f184b9f	0.5949039
72	0xbcd9a663	-0.026568597
73	0x3e895bb7	0.26827785
74	0xbecc88c9	-0.3994811
75	0xbec0f659	-0.37687948
76	0x3e36df65	0.17858656
77	0x3e8a4818	0.27008128
78	0x3e615979	0.22006787
79	0x3e518eb2	0.2046459
80	0x3eef0d27	0.46689722
81	0x3d20553f	0.039143797
82	0x3ee753fb	0.4518126
83	0x3f8c8fd7	1.0981396
84	0x3f50d7e4	0.8157942
85	0x3e5ccbc6	0.21562108
86	0xbf04b008	-0.518311
87	0x3d86d5ba	0.06583734
88	0x3ebde616	0.37089604
89	0x3ea0a8d6	0.31378812
90	0x3f2addae	0.66744506
91	0x3f24b230	0.6433439
92	0x3f1e70a8	0.6189065
93	0x3f141258	0.5784049
94	0xbe232a83	-0.15934186
95	0xbd77dff4	-0.060516313
96	0x3cd9a353	0.026567137
97	0x3f1e51c6	0.61843526
98	0x3e6c369d	0.23067708
99	0xbedcbc19	-0.43112257
100	0xbef135ce	-0.47111362
101	0xbf0e3514	-0.5554974
102	0x3ebb5193	0.36585674
103	0x3e3ca5b0	0.1842258
104	0x3e4d015d	0.20020051
105	0xbd68a9a1	-0.056802396
106	0x3e855963	0.2604476
107	0x3f033004	0.5124514
108	0x3f9121bd	1.1338421
109	0x3f44f170	0.76930904
110	0x3d3f0689	0.04663709
111	0x3e0f1558	0.13972986
112	0x3dbc1c05	0.09185032
113	0x3e7fb826	0.24972591
114	0xbefdfc1a	-0.496064
115	0xbd8a1314	-0.0674192
116	0x3f2c1807	0.6722416
117	0xbf3d8c3b	-0.740421
118	0x3d7c4725	0.061591286
119	0x3f1af7ad	0.60534173
120	0x3f133838	0.5750766
121	0x39b35988	0.00034208247
122	0x3f662453	0.89899176
123	0x3f4a245e	0.7896174
124	0x3e8f3192	0.27967507
125	0xbe5887f4	-0.21145612
126	0xbe8cff36	-0.2753846
127	0xbd931402	-0.071815506
128	0xbea261d0	-0.3171525
129	0x3eb25ea2	0.34837824
130	0xbdccc4a1	-0.099984415
131	0xbea0a155	-0.31373087
132	0xbe007007	-0.12542735
133	0x3da7e0ff	0.081972115
134	0x3deda10d	0.116029836
135	0x3eb05048	0.3443625
136	0xbc278628	-0.010224856
137	0xbea69766	-0.32537383
138	0x3e2e6fcd	0.17034836
139	0xbebe8787	-0.37212774
140	0x3ebb031d	0.36525813
141	0xbe300ac9	-0.17191614
142	0x3d9d0cc0	0.076684475
143	0xbea14beb	-0.31503233
144	0x3f00c916	0.5030683
145	0x3f0e8ff2	0.55688393
146	0x3e3f0a37	0.1865624
147	0x3e0713cc	0.13191146
148	0x3ee294a0	0.44254017
149	0x3dacdd93	0.084406994
150	0xbe1dc3cb	-0.1540672
151	0xbe3b3238	-0.18280876
152	0xbeacdec0	-0.33763695
153	0x3ea22a08	0.31672692
154	0xbee128fb	-0.43976578
155	0xbda227f1	-0.079177745
156	0xbe1a7104	-0.15082175
157	0xbca92d8c	-0.020651601
158	0xbbc3e2a6	-0.0059779463
159	0x3ea31420	0.31851292
160	0x3e944a2a	0.28962833
161	0xbf0c29ed	-0.54751474
162	0xbec67f25	-0.3876888
163	0xbdaa06b6	-0.08302061
164	0xbd567387	-0.05235627
165	0x3e35dd74	0.17760259
166	0x3ea9d575	0.33170667
167	0xbe1a8527	-0.15089856
168	0xbe5b2b1b	-0.21403162
169	0x3cb0cf8f	0.021583347
170	0xbeacaa8a	-0.3372386
171	0xbecc789b	-0.39935765
172	0xbdc7a786	-0.097487494
173	0x3daeddc7	0.085383944
174	0xbeb797ed	-0.35858098
175	0x3f0b3ca0	0.5438938
176	0x3e137c7a	0.14402953
177	0xbf2aa11f	-0.666521
178	0xbeb4ed11	-0.35337117
179	0x3ee90eb6	0.45519036
180	0x3e1fc97a	0.15604201
181	0x3c70e783	0.014703634
182	0xbe1043ce	-0.14088365
183	0xbe6f4a24	-0.23368126
184	0xbe87eaa4	-0.26546204
185	0xbd32da01	-0.043664936
186	0xbcba09eb	-0.022709807
187	0x3e8ba7b0	0.27276373
188	0x3eaab3a8	0.33340192
189	0xbb843c97	-0.004035543
190	0x3d729486	0.059223674
191	0xbeed0d5e	-0.4629926
192	0x3ef4d27a	0.4781683
193	0x3e1d0f56	0.15337881
194	0x3d8f5744	0.069990665
195	0xbcd42ccf	-0.025900273
196	0x3f1e9097	0.61939377
197	0x3f164a7f	0.5870742
198	0xba1d48de	-0.0005999933
199	0x3e40e8f0	0.18838859
200	0x3dee3422	0.11631037
201	0xbdac62d2	-0.08417286
202	0x3e177fdf	0.14794873
203	0x3eee5524	0.46549332
204	0x3b2b4b3f	0.002613738
205	0x3eb2b956	0.34907025
206	0x3df3963b	0.118938886
207	0x3e87af6f	0.26501033
208	0x3dc69037	0.096954755
209	0x3e46243d	0.19349761
210	0x3da2cefc	0.079496354
211	0x3f07bc76	0.53021944
212	0x3ef71051	0.48254636
213	0xbe116821	-0.14199878
214	0xba68f9bd	-0.00088873116
215	0x3f035330	0.5129881
216	0x3dc5c4d7	0.09656685
217	0x3e21178a	0.15731636
218	0x3eaece75	0.3414189
219	0xbe326f3d	-0.17425247
220	0x3e654022	0.22387746
221	0x3f04c3d3	0.51861304
222	0xbe6b9185	-0.2300473
223	0xbc0c6dcb	-0.008571099
224	0xbc08cb9d	-0.008349326
225	0x3eafd1b5	0.3433968
226	0x3cae2eb0	0.021262497
227	0x3e83b7c4	0.2572614
228	0x3e5b2d43	0.21403985
229	0xba2eeb3c	-0.0006672626
230	0x3dbd753c	0.09250876
231	0x3f0ffdcd	0.56246644
232	0x3f0673ca	0.5252043
233	0x3d8ff360	0.07028842
234	0x3e3cb81d	0.18429609
235	0x3ebe89b6	0.3721444
236	0x3ea4db36	0.32198495
237	0x3f0bcc52	0.54608643
238	0x3f2a9ea0	0.6664829
239	0x3d5fa945	0.054604787
240	0x3e6983a7	0.22804128
241	0x3f0373c9	0.5134855
242	0x3dfdcea3	0.123929285
243	0x3e0a9844	0.13534647
244	0x3e097a57	0.13425575
245	0x3e96c527	0.2944729
246	0x3f3c1470	0.73468685
247	0x3e713e1c	0.23558849
248	0x3eadf1c3	0.33973512
249	0x3dabdcef	0.08391749
250	0x3e153228	0.14569914
251	0x3e96009e	0.29297346
252	0x3ef5d3a8	0.48013043
253	0x3e4c2310	0.1993525
254	0x3d71e654	0.05905755
255	0xbe6c9ed3	-0.23107462

lstm.bias_hh_l0 f4 [256]
0	0x3e7927d6	0.24331602
1	0x3e9e0122	0.3086024
2	0x3cd6fb63	0.026242917
3	0x3e72aa91	0.23697878
4	0x3f17ddff	0.59323114
5	0x3f68ac65	0.90888053
6	0x3e5cc502	0.21559528
7	0x3e8f9ef9	0.28050974
8	0xbeaf3f2c	-0.34227884
9	0x3d3cc655	0.04608758
10	0xbd007040	-0.03135705
11	0x3e36a301	0.17835619
12	0x3ec25e0f	0.37962386
13	0x3eeedc59	0.46652487
14	0x3e1ca578	0.15297496
15	0x3d67f810	0.056633055
16	0x3f199893	0.59998435
17	0x3ed1dd50	0.4098916
18	0x3e2130f9	0.15741338
19	0x3f16b561	0.5887051
20	0x3f032cf7	0.51240486
21	0x3bcca05c	0.0062447023
22	0xbc25e366	-0.010125017
23	0xbe5aeee0	-0.21380186
24	0x3eb2b65d	0.34904757
25	0x3e4c5a9d	0.19956441
26	0x3e3a1dbd	0.18175407
27	0x3d9226b3	0.071362875
28	0x3e636366	0.22205886
29	0x3efbbedf	0.4916906
30	0xbe7331ef	-0.23749517
31	0x3d6f8fd3	0.05848677
32	0x3df0d35a	0.11759062
33	0x3eda11ad	0.4259161
34	0x3dc00894	0.09376636
35	0x3e3f12db	0.18659537
36	0x3de8628a	0.1134692
37	0xbdbe67db	-0.092971526
38	0x3d567271	0.052355234
39	0x3ea8f536	0.3299958
40	0xbb45969d	-0.0030149587
41	0x3ea1174c	0.31463087
42	0x3e5a8182	0.21338466
43	0x3eb99894	0.3624922
44	0x3f478caf	0.7794904
45	0x3f15b5c8	0.584805
46	0x3f0ffaba	0.56241953
47	0x3ee29129	0.44251373
48	0x3ee7ca69	0.45271614
49	0x3ef08894	0.469792
50	0xbe82790a	-0.2548297
51	0x3e8ac6b7	0.27104732
52	0x3eae41c3	0.34034547
53	0x3d47c2f1	0.048769895
54	0x3f6466c9	0.8921934
55	0x3e801656	0.2501704
56	0x3ea1f583	0.31632623
57	0x3d87a7d4	0.066238075
58	0x3f1b7018	0.60717916
59	0x3e92396e	0.2855944
60	0x3e854640	0.2603016
61	0xbdd3c2d1	-0.10339893
62	0xbeedc84c	-0.46441877
63	0xbd916034	-0.070984274
64	0x3d0bde3d	0.03414749
65	0x3f485842	0.7825967
66	0x3f0c380e	0.5477303
67	0x3cc7242e	0.024309244
68	0x3f59b3fc	0.8504026
69	0x3f1feb08	0.62468004
70	0x3f504e7f	0.81369776
71	0x3ecdf0f8	0.40222907
72	0x3e1903b1	0.14942814
73	0x3e86c720	0.26323795
74	0xbee4024f	-0.4453301
75	0xbee472fd	-0.4461898
76	0x3e4e36b7	0.2013806
77	0x3ef8a4ca	0.48563224
78	0x3ecbaaa4	0.39778626
79	0x3eaa29ad	0.3323492
80	0x3e9dc47d	0.3081397
81	0x3e057bb0	0.13035464
82	0x3ea05b73	0.3131977
83	0x3f7f12f1	0.9963828
84	0x3f67b1f2	0.905059
85	0x3e768e78	0.24077785
86	0xbf1ba7f8	-0.60803175
87	0xbc92c15c	-0.017914467
88	0x3ee480ae	0.44629425
89	0x3ed8be00	0.42332458
90	0x3f1180d3	0.56837195
91	0x3eedabb7	0.4642007
92	0x3f4fc9c6	0.81167257
93	0x3f2ded38	0.6794009
94	0xbd894b61	-0.067038305
95	0xbe818c1e	-0.25302213
96	0xbd340d23	-0.04395784
97	0x3f11591c	0.56776595
98	0x3ec4c92b	0.3843473
99	0xbf194839	-0.5987583
100	0xbf0590f7	-0.52174324
101	0xbf1fbc46	-0.6239666
102	0x3eab5d75	0.3346974
103	0x3e3d141c	0.18464702
104	0x3ec45208	0.38343835
105	0xbde9337b	-0.11386772
106	0x3e9df9b5	0.30854574
107	0x3f02e755	0.51134235
108	0x3f6f8687	0.9356465
109	0x3f20a396	0.6274961
110	0x3e38523e	0.18000123
111	0x3e685368	0.22688067
112	0x3c2ca68e	0.010537757
113	0x3dba8d71	0.09109009
114	0xbebf4475	-0.37356916
115	0xbd8cd08a	-0.06875713
116	0x3f24c119	0.64357144
117	0xbf47bd9b	-0.7802369
118	0x3e85b5b8	0.26115203
119	0x3f253539	0.64534336
120	0x3ee64f35	0.44982305
121	0xbd2d8552	-0.042363472
122	0x3f5c1f4b	0.8598525
123	0x3f36ccca	0.71406233
124	0x3e2cc5d9	0.16872348
125	0xbe979c02	-0.29611212
126	0xbea6d3e4	-0.32583535
127	0xbe0fd82a	-0.14047304
128	0xbeb36ed6	-0.350455
129	0x3eadc918	0.33942485
130	0xbe34defc	-0.17663187
131	0xbebf62cb	-0.3738006
132	0x3d9ccdd1	0.07656444
133	0xbde389d5	-0.11110274
134	0xbd7dd071	-0.061966363
135	0x3e9e7354	0.30947363
136	0x3e00632e	0.12537834
137	0xbedb72b2	-0.42860943
138	0x3e227e63	0.15868525
139	0xbef33321	-0.47499946
140	0x3e893351	0.26796964
141	0xbdfa9779	-0.12235922
142	0xbdcd3db3	-0.10021534
143	0xbe85a708	-0.26103997
144	0x3ed36116	0.41285008
145	0x3f01a901	0.50648504
146	0x3e07b0c1	0.1325102
147	0x3e86fc7e	0.2636451
148	0x3f029e6b	0.51022977
149	0x3de42699	0.111401744
150	0xbe855613	-0.26042232
151	0xbe431b8e	-0.1905348
152	0xbed41380	-0.41421127
153	0x3ddf2d01	0.10897256
154	0xbee6ac45	-0.45053306
155	0x3dc9bf2d	0.09850917
156	0xbe8478d9	-0.2587345
157	0x3d96ba8a	0.07359798
158	0x3de61370	0.11234176
159	0x3e8ba430	0.27273703
160	0x3e860796	0.26177663
161	0xbef5a737	-0.47979137
162	0xbec0cb2b	-0.37655005
163	0xbc8242c2	-0.015900973
164	0x3dfa7a6a	0.1223038
165	0x3d089e7a	0.03335426
166	0x3ea974dd	0.33096972
167	0xbe396bd7	-0.18107544
168	0xbe230591	-0.15920092
169	0xbd500785	-0.05078842
170	0xbeb97a26	-0.36226004
171	0xbe9ca467	-0.3059418
172	0xbd83fbbe	-0.064445004
173	0x3e20dc44	0.15709025
174	0xbeba0c17	-0.3633735
175	0x3efe698b	0.49689898
176	0x3ddfb8e5	0.10923938
177	0xbf230f9b	-0.6369569
178	0xbe10c109	-0.14136137
179	0x3ec65406	0.3873598
180	0xbc90a4b5	-0.017656663
181	0x3e282200	0.1641922
182	0xbe24a7dc	-0.16079658
183	0xbe22c926	-0.15897045
184	0xbe72df20	-0.23717928
185	0x3db758d6	0.08952491
186	0x3cc76223	0.024338787
187	0x3e2e52ee	0.17023823
188	0x3eccddd4	0.4001299
189	0x3d7f0656	0.0622619
190	0x3cbdf569	0.02318831
191	0xbea4925a	-0.32142907
192	0x3f1a86a7	0.60361713
193	0x3e66ded0	0.22545934
194	0x3d0c2d86	0.034223102
195	0xbc4d8900	-0.01254487
196	0x3ef8eb02	0.48616797
197	0x3edd4659	0.43217734
198	0xbcb3340d	-0.021875406
199	0x3db012e5	0.08597354
200	0xbd9901b6	-0.074710295
201	0x3e07c067	0.1325699
202	0x3d53b0c0	0.051682234
203	0x3ed07f9e	0.40722364
204	0x3d69c237	0.057069983
205	0x3ed4dc98	0.4157455
206	0x3e11e1b9	0.14246263
207	0x3e9ffe30	0.31248617
208	0x3e4ef73e	0.20211503
209	0x3cf390d2	0.029732142
210	0x3da854f0	0.082193255
211	0x3ef1d70e	0.47234386
212	0x3f2cd1f1	0.67507845
213	0xbeac66ca	-0.33672172
214	0x3e07eccc	0.13273925
215	0x3f0249fe	0.50894153
216	0x3d5640b2	0.052307792
217	0x3e7a86cc	0.24465483
218	0x3ead2f97	0.3382537
219	0xbe1e68cb	-0.15469663
220	0x3e92b67f	0.28654858
221	0x3f32eac1	0.69889456
222	0xbe0b588c	-0.13607997
223	0x3cc109e3	0.023564285
224	0x3de34969	0.11097986
225	0x3e65fc02	0.22459415
226	0x3e1b1c45	0.15147503
227	0x3e449f86	0.19201478
228	0x3ea4be1b	0.3217629
229	0x3dbec2c2	0.09314491
230	0x3d80d550	0.06290686
231	0x3f0cd6cf	0.5501527
232	0x3ef590b6	0.47961968
233	0x3e1225aa	0.1427218
234	0x3d3a1747	0.045432355
235	0x3e5bb967	0.21457444
236	0x3ef290fe	0.47376245
237	0x3f0a3e02	0.54000866
238	0x3f40c028	0.7529321
239	0x3e78753f	0.24263476
240	0x3eacf219	0.33778456
241	0x3ec6bf23	0.388177
242	0x3e86b26e	0.26308006
243	0x3de79d51	0.113093026
244	0x3e041d15	0.12901719
245	0x3ef70029	0.4824231
246	0x3f39ede0	0.72628593
247	0x3e28fbac	0.16502255
248	0x3ebc656d	0.36796132
249	0x3d7fe4c2	0.06247402
250	0x3e6efd6a	0.23338857
251	0x3e96e26c	0.2946962
252	0x3ef3e0c8	0.47632432
253	0x3de1076c	0.10987744
254	0x3d3f03ca	0.046634473
255	0xbeb74dd1	-0.35801557

fc.weight f4 [1, 64]
0	0xc046395a	-3.0972505
1	0x40383277	2.8780801
2	0xbfd59f82	-1.6689303
3	0xbffc9afb	-1.9734796
4	0xbfc2e701	-1.5226747
5	0xc0097b80	-2.1481628
6	0x3fa96c92	1.3236258
7	0x40355e1a	2.8338685
8	0xbf26e482	-0.65192425
9	0xc027755b	-2.6165378
10	0x40d5470d	6.664923
11	0x4004c041	2.0742342
12	0x403d8085	2.9609692
13	0x3faa56c5	1.330773
14	0x4052e7ec	3.2954054
15	0xc0602fb1	-3.5029109
16	0x403d62fb	2.9591663
17	0x40416f10	3.0224037
18	0x408493ea	4.143056
19	0x3faab7c3	1.333733
20	0x3f9ac9cf	1.2092837
21	0x3f987e9b	1.1913637
22	0xbfd942c3	-1.6973499
23	0x3f8b46c0	1.0880966
24	0xc034124b	-2.8136165
25	0x40397f5c	2.8983984
26	0xc04e5220	-3.2237625
27	0xbf89c9ca	-1.0764706
28	0xbe1dc97b	-0.1540889
29	0xbf652116	-0.8950361
30	0xbff60376	-1.9219806
31	0x3fa7c814	1.3107934
32	0x3fae21da	1.3604081
33	0xc03cc856	-2.9497275
34	0xbfefb89e	-1.8728216
35	0xc1183ad0	-9.5143585
36	0xc0c188bc	-6.047941
37	0xc0d2e22f	-6.5901103
38	0x4016c28f	2.355625
39	0xbffc2ae9	-1.9700595
40	0xc0370787	-2.8598344
41	0x3fbd0d87	1.4769753
42	0xc031cad6	-2.7780051
43	0xbfbc8eb6	-1.4731052
44	0xbfa56fcf	-1.2924746
45	0xbfcf143d	-1.6178051
46	0xc08c2134	-4.379053
47	0xc054cf9a	-3.325171
48	0x3fbd42f8	1.4786062
49	0x3fe679e5	1.8005949
50	0x4090caee	4.5247717
51	0xbfb3dac3	-1.4051136
52	0x3fcd7377	1.6050862
53	0x40ee5990	7.448433
54	0xbfacf2c8	-1.3511591
55	0xbfb26419	-1.3936797
56	0xbfbbea18	-1.4680815
57	0xbff9e9f9	-1.9524528
58	0x3ff00c28	1.875371
59	0x3fc9556c	1.5729194
60	0xbe0e9e3c	-0.13927549
61	0x3f3c01fc	0.7344053
62	0xc095325d	-4.662398
63	0x3f9b7b98	1.2147093
